concept_graphs/models/color_classifier.pth (torch, 26190 bytes, 2 tensors)

fc.weight f4 [2, 3072]
0	0x3c3f7cf4	0.011687506
1	0x3c8649a6	0.01639254
2	0x3c2edbb0	0.010672495
3	0x3c59f913	0.013304013
4	0x3beac358	0.0071644
5	0x3c559cb9	0.013037854
6	0xbc30b2e1	-0.010784836
7	0x3c8272c4	0.015923865
8	0xbc2cbd46	-0.010543173
9	0x3b1cfd35	0.0023954634
10	0xbc1bf819	-0.0095196
11	0x3ab8992e	0.0014083737
12	0x3c071cec	0.008246642
13	0xba80662c	-0.0009796075
14	0x3c7c78bc	0.015409645
15	0xbb43df50	-0.0029887743
16	0x3c088eeb	0.008334856
17	0xbc5c1ade	-0.01343414
18	0x3c46a781	0.012124897
19	0x3b9333c8	0.004492257
20	0x3c717cb2	0.014739202
21	0xbc3b0100	-0.011413813
22	0xbba6baa2	-0.0050881663
23	0xbc60d294	-0.013722081
24	0x3c029bcb	0.007971714
25	0xbc4aa08a	-0.012367377
26	0x3a6bac2c	0.0008990194
27	0x3b293266	0.0025817393
28	0xbc919eff	-0.01777601
29	0xbc918d93	-0.017767703
30	0xbc8fcbc9	-0.017553227
31	0xbb0bf6cd	-0.0021356822
32	0xbb94b05f	-0.0045376266
33	0x3c84fdc5	0.016234288
34	0x3c8720d0	0.016495138
35	0xbc62b37b	-0.013836737
36	0xbc0430c4	-0.008068267
37	0x3a0cc3d4	0.0005369757
38	0xbc3c0590	-0.011475936
39	0xbc23c4c8	-0.009995647
40	0x39f955f3	0.00047557018
41	0x3a9f3e0b	0.0012149228
42	0x3c6c1d06	0.014411217
43	0x3c690a44	0.014223639
44	0xbc857c43	-0.016294604
45	0xbc70859e	-0.014680294
46	0xbc8c8624	-0.017153807
47	0xba0d428a	-0.0005388638
48	0x3c408537	0.011750511
49	0xb8a423ae	-7.826775e-05
50	0xbc0359c0	-0.008017004
51	0x3c8eefab	0.017448267
52	0xbc24678b	-0.010034452
53	0xbc8f6b4e	-0.017507222
54	0x3b814955	0.0039455094
55	0x3ba6d98e	0.0050918525
56	0xbb714926	-0.0036817282
57	0x3c07004c	0.008239817
58	0x3c85d8f3	0.016338801
59	0x3abe1abf	0.001450382
60	0x3c3701b6	0.0111698415
61	0x3c88eebf	0.016715406
62	0x3c8fcda2	0.017554108
63	0x3c886471	0.016649457
64	0xbc7523e8	-0.014962174
65	0x3c569396	0.013096711
66	0xbc5b86e7	-0.013398862
67	0xba822df4	-0.0009931908
68	0x3b95a561	0.004566834
69	0xbbe4d156	-0.0069829626
70	0xba8a2520	-0.0010539629
71	0xbb431171	-0.0029765035
72	0xbc8667f1	-0.016406985
73	0x3b2b2918	0.0026117023
74	0xbc8f0ae7	-0.017461253
75	0xbc2052da	-0.009785378
76	0x3c34d4c3	0.0110370545
77	0xbc38e9c1	-0.0112862
78	0xbc93573f	-0.017985938
79	0x3b1aa382	0.0023595993
80	0x3c67b49e	0.014142184
81	0x3ab1910b	0.0013547254
82	0xbbf18956	-0.007371108
83	0x3ba6db1b	0.0050920374
84	0xbba6d7d6	-0.0050916476
85	0x3c3a025d	0.0113531025
86	0x3c41b9cd	0.0118240835
87	0xbc167935	-0.009184171
88	0xbc8021fa	-0.015641201
89	0xbc8ab7fe	-0.016933437
90	0x3c75577b	0.01497447
91	0x3c01e1b8	0.007927351
92	0x3c6c1f61	0.014411778
93	0x3c30bd78	0.01078736
94	0xbc478534	-0.012177754
95	0x3b85e2df	0.004085883
96	0xbc2a712b	-0.010402958
97	0xbc211d88	-0.009833701
98	0xbc2ef389	-0.0106781805
99	0x3ae858ee	0.0017726698
100	0xbc06dd9c	-0.008231547
101	0x3b97e29a	0.0046351673
102	0x3b23aabf	0.0024973599
103	0xbbd07c13	-0.006362447
104	0x3c873c25	0.016508171
105	0x3bb1acf8	0.005422231
106	0x3ba4cd5e	0.0050293645
107	0x3c753d07	0.014968163
108	0xbb712d01	-0.0036800506
109	0xbc07eff7	-0.008296958
110	0xbbb40895	-0.005494187
111	0xbbd7f682	-0.0065906653
112	0x3c1c4f8e	0.009540452
113	0xbb6beb4a	-0.0035998398
114	0x3c24db1f	0.010062008
115	0x3c8a8f43	0.016914016
116	0xbc68a4b9	-0.014199429
117	0xbc5aa4bd	-0.013344941
118	0x3b7ef094	0.003890072
119	0xbb997924	-0.0046836305
120	0xbb8ca0c4	-0.0042916257
121	0xbc0d9331	-0.00864105
122	0x3bb78294	0.005600283
123	0x3bbaf421	0.005705372
124	0x3bf6144c	0.007509744
125	0xba948b63	-0.0011333044
126	0xbb277c56	-0.0025556288
127	0x3c3339c9	0.01093907
128	0x3c15be73	0.009139645
129	0x3bba02c5	0.0056765997
130	0x3c1483a4	0.009064589
131	0x3c5a9aee	0.013342602
132	0x3ad88103	0.0016517941
133	0x3c6ee412	0.014580743
134	0xbc283128	-0.010265626
135	0x3b2251b1	0.002476793
136	0x3b6c2cad	0.003603737
137	0x3bb79431	0.0056023826
138	0x3bfa12f6	0.007631655
139	0x390c432b	0.00013376462
140	0x3903fbb7	0.00012586905
141	0x3c0b6423	0.008507761
142	0x3aecd524	0.0018068892
143	0xbc0ff95b	-0.008787478
144	0x3c685412	0.0141802
145	0x3c8d9c86	0.01728655
146	0x3c15a876	0.0091344025
147	0x3c491fc2	0.012275638
148	0xbb955f96	-0.004558514
149	0x3c63922c	0.013889831
150	0x3b2a70cd	0.0026007176
151	0x3c32890c	0.010896932
152	0x3c8b7a37	0.01702605
153	0xbb623736	-0.0034517772
154	0x3c6fa0dd	0.014625755
155	0x3c6be1cf	0.014397099
156	0xbc450d37	-0.012027076
157	0x3c8fa062	0.017532531
158	0x3c2138a2	0.0098401625
159	0x3aa80b5b	0.0012820767
160	0x3c33029a	0.010925913
161	0xbbf91008	-0.007600788
162	0xbc2743e8	-0.010209061
163	0xbc183e43	-0.009292188
164	0x3b94bf33	0.0045393943
165	0xbc61973e	-0.013768969
166	0x3c1618e7	0.009161211
167	0x3c10c869	0.008836844
168	0x3bd166d4	0.006390432
169	0x3c8029df	0.015644966
170	0xbc56775c	-0.013089981
171	0x3c336e22	0.010951551
172	0x3a7504e4	0.0009346737
173	0xbc79cf6d	-0.015247208
174	0x3b9d1165	0.0047933334
175	0x3c805699	0.015666293
176	0xbc4c7be7	-0.0124807125
177	0xbc5de5a9	-0.013543525
178	0xbc1a9d65	-0.00943694
179	0x3a5a5768	0.00083290646
180	0xbc7c8a0a	-0.01541377
181	0x3c684c81	0.014178396
182	0x3c78ef5e	0.015193788
183	0x3c8a6e92	0.016898427
184	0xbc39175c	-0.011297073
185	0x3b912b6d	0.0044302256
186	0x3b47fb75	0.003051487
187	0xbb9a7846	-0.0047140447
188	0xbc814732	-0.015781019
189	0x3c492679	0.012277239
190	0xbc7a1e2f	-0.015265985
191	0x3b8a370b	0.0042179874
192	0xbbe5bfba	-0.007011381
193	0xbb32fa5e	-0.0027309875
194	0xbc8d4f70	-0.017249793
195	0xba5f6fd1	-0.0008523437
196	0xbc361e89	-0.011115679
197	0xbb6e615b	-0.0036373946
198	0x3c837f18	0.016051814
199	0x3c6db3dd	0.014508215
200	0x3a3ded81	0.00072451687
201	0x3c0f475c	0.008745041
202	0x3c3fe5e3	0.011712524
203	0xbbff667f	-0.007794201
204	0x3c5602c6	0.013062185
205	0xbc21da18	-0.009878658
206	0x3cb04741	0.021518352
207	0x3b135cee	0.002248581
208	0xbb9f381a	-0.0048589827
209	0x3c3f1bf5	0.01166438
210	0x3bf3d5d9	0.007441264
211	0xbbb2f4ac	-0.005461296
212	0x3b9bf54e	0.004759467
213	0xbc4c3251	-0.012463168
214	0xbc12f5ec	-0.008969765
215	0xbb858292	-0.004074403
216	0x3c55f375	0.013058533
217	0xbc65f90a	-0.014036426
218	0xbc17ea96	-0.009272238
219	0xbc45d2b1	-0.0120741585
220	0xbc4aa97e	-0.012369512
221	0xbc833871	-0.016018124
222	0x3b76339f	0.003756739
223	0xbbc4329a	-0.0059874775
224	0xbc13b855	-0.009016116
225	0xbc5548e6	-0.013017869
226	0x3bba35c2	0.005682678
227	0x3bd277ce	0.0064229732
228	0xbbd99c4c	-0.0066409465
229	0xbc602f48	-0.013683148
230	0x3c88da5e	0.016705688
231	0xbbad38a2	-0.005286292
232	0xbc887f5d	-0.016662294
233	0xbb11f061	-0.002226852
234	0x3b028fa8	0.0019922052
235	0x3bc7679e	0.00608535
236	0x3b86016d	0.0040895254
237	0x3b72a060	0.003702186
238	0x3c226f35	0.009914209
239	0xbbaf54ee	-0.0053507006
240	0xb9b5b4e0	-0.00034657773
241	0x3ca2a7c8	0.019855395
242	0x3c78bb98	0.015181445
243	0x3c01e2f3	0.007927644
244	0x3ca84f0a	0.020545501
245	0x3c40390c	0.011732351
246	0x3c317861	0.010831923
247	0x3c870ead	0.01648649
248	0x3c8b5620	0.017008841
249	0xbc75d70f	-0.015004887
250	0xbc01bf3f	-0.007919132
251	0xbc5ed261	-0.013599963
252	0x3bb93277	0.005651768
253	0xbc2f9f05	-0.010719066
254	0xbba20d67	-0.0049454453
255	0xbc038dfb	-0.008029456

fc.bias f4 [2]
0	0xbc581f88	-0.013191111
1	0x3b1e8fdc	0.0024194634
