concept_graphs/models/shape_classifier.pth (torch, 26190 bytes, 2 tensors)

fc.weight f4 [2, 3072]
000000 0f bc d0 bb 10 a8 23 bc 70 9f 97 3b 19 77 92 39
       -0.0063700746 -0.0099888 0.0046271607 0.00027936025
000010 19 a3 d4 3b 3d 4b e4 bb 6f 49 5b 3b 9a 80 91 3a
       0.0064891693 -0.006966977 0.0033460518 0.0011100948
000020 d2 38 84 3c ce 46 0f bc 36 a6 5c bc 51 b3 83 bc
       0.016140375 -0.0087449085 -0.013467362 -0.016076716
000030 dd 5e da bb 80 43 3f bc 7e 64 09 3b f7 50 39 3c
       -0.0066641406 -0.011673808 0.002096444 0.011310807
000040 fd 00 a5 bb 06 a9 84 3c 10 09 34 bc 02 2b 63 3c
       -0.005035518 0.016193878 -0.010988489 0.013865234
000050 37 2c 6f 3b a3 a2 4d 3c 34 a0 35 bc d6 a3 8b ba
       0.003649486 0.012550983 -0.011085559 -0.0010653685
000060 2f 7c 53 3c 06 d0 30 3c eb 48 a9 bb 60 88 6e bc
       0.012908026 0.010791784 -0.005166163 -0.0145588815
000070 22 bf 84 3c 83 d9 9f 3b 64 11 34 bc f6 68 80 3c
       0.01620442 0.0048782243 -0.010990474 0.01567505
000080 aa 25 84 bb eb 73 dc 3b d5 e2 34 3c b0 d0 3a bc
       -0.00403281 0.0067276857 0.011040409 -0.011402294
000090 bd 8b 98 3b da d3 24 3c 7c 78 6e 3c b3 71 b6 3a
       0.00465533 0.010060275 0.014555093 0.0013919383
0000a0 dc e7 27 bb 2d 3b 34 bc 0b 90 3b bc b2 cc 1f bc
       -0.0025620377 -0.011000437 -0.011447917 -0.009753393
0000b0 ea 68 8e 3c 5d 2c 00 bc 8f 4e 63 bb 85 f2 80 bc
       0.017384011 -0.007823077 -0.0034684276 -0.015740642
0000c0 68 70 20 3c d0 a0 30 bb 1d 86 47 3b 33 8f 05 bc
       0.009792425 -0.002695132 0.0030444928 -0.008151817
0000d0 34 f1 c5 3b 75 01 51 bc 7c fb bc 3b 8b 52 8d bc
       0.0060407165 -0.012756695 0.005767284 -0.017251274
0000e0 03 8b a3 bb 12 0c 95 3c 1d fa 24 3c d7 a6 5a 3c
       -0.0049909367 0.018194232 0.010069397 0.013345442
0000f0 67 61 2e 3c 1f f2 49 bc b9 73 0b bc b7 5d 0c bb
       0.01064334 -0.012325793 -0.008511477 -0.0021418163
000100 f3 0d 75 3c c0 c7 94 bb d4 13 25 3c 6c 50 75 3c
       0.014956939 -0.0045404136 0.010075528 0.014972787
000110 f4 95 80 bb d6 31 eb 3b a4 6e 2e bc 8a 92 da bb
       -0.003924126 0.0071775718 -0.010646496 -0.006670301
000120 0d a2 6e bc 1d 9e 90 3c b0 12 0d 3c c6 eb 2c 3c
       -0.014565003 0.01765352 0.0086104125 0.01055426
000130 1a 4a 15 3c ab fb 1b 3c d5 9f a9 3a be bf 11 3b
       0.0091119055 0.009520452 0.001294131 0.0022239531
000140 09 1e 47 3b 15 ed 12 bc 47 93 8b bb 69 e5 16 bc
       0.0030382893 -0.008967658 -0.0042595 -0.009209969
000150 28 01 10 bb 4c de dc 3b b6 27 06 bc fb f0 e2 3b
       -0.0021973345 0.006740367 -0.008188179 0.0069256998
000160 9d 37 80 bc 75 e1 73 bc bc 29 1b 3c dc 39 1d bb
       -0.015651518 -0.014885296 0.0094703995 -0.0023990786
000170 59 2f 2b bb d1 e7 8e 3c 32 c1 75 bc 68 24 33 3c
       -0.002612075 0.017444523 -0.014999675 0.010933973
000180 05 50 46 bc 84 74 c8 bb f5 d5 95 bb 71 a0 92 bb
       -0.012104039 -0.0061174054 -0.004572625 -0.0044746925
000190 6d 41 94 3c 07 ef 19 3c c3 cb fc 3a 37 de e8 3b
       0.018097604 0.0093953675 0.00192868 0.007106568
0001a0 3f cd 6b bc c2 2b 0e bc 47 a7 9a bb aa fe 85 bb
       -0.014392196 -0.008677425 -0.004719648 -0.004089196
0001b0 90 45 08 bc aa 1f 67 bb 57 63 0b 3b af 13 da 3b
       -0.008317366 -0.0035266676 0.0021268928 0.0066551785
0001c0 f5 b3 46 bc cd 15 6d bc e7 bf 90 3c e7 10 81 bb
       -0.012127866 -0.01447053 0.017669631 -0.0039387825
0001d0 61 a0 50 3c 67 08 01 bc ac 55 8a 3a 39 8c 7b bc
       0.01273355 -0.007875538 0.0010554097 -0.015353256
0001e0 a6 e5 dc bb 5d ba 31 3c f4 47 4a bc ef 5f a3 bb
       -0.0067412434 0.010847655 -0.0123462565 -0.0049858014
0001f0 97 c7 14 bc a9 c2 06 b9 86 4d 8b 3b 3e 74 c8 3b
       -0.009080789 -0.00012851752 0.004251185 0.006117373
000200 31 9f eb ba d2 2e 83 3b ca 5c 0a bc da da 98 bb
       -0.001797652 0.004003384 -0.008444974 -0.004664761
000210 5e 2d e8 3b 9e b9 8d bc 43 9b fc 3b de 14 85 bc
       0.0070854863 -0.017300423 0.0077089383 -0.016245302
000220 2f 05 22 bc 38 05 fc bb 93 81 44 bc 70 98 c1 bb
       -0.009888931 -0.007691052 -0.0119937835 -0.0059080645
000230 52 b4 4f 3c 93 e9 66 3c 6c 2f 45 3c f4 56 ac bb
       0.012677269 0.014093774 0.012035232 -0.005259389
000240 1a 2a ac ba bb 9e 3d 3c 53 48 62 ba b1 ea 51 ba
       -0.0013135106 0.011573489 -0.0008631993 -0.0008007689
000250 0a 0b 8b bc bd 4a 0f bc 12 0c 10 bc 8b c9 04 ba
       -0.016973037 -0.008745846 -0.00879194 -0.00050654326
000260 9f b9 e1 3b cd ce 8e 3b 41 2f 3c bc 96 16 85 bc
       0.006888583 0.0043581487 -0.011485876 -0.016246121
000270 c0 94 38 bc df ea 9f 3b 8f af d1 3b a9 3d 93 3b
       -0.0112659335 0.0048802937 0.006399102 0.0044934344
000280 d9 21 51 bc fc 65 65 bc d4 0d 8e 3b ad 59 01 3c
       -0.012764418 -0.014001366 0.0043351445 0.0078949155
000290 a4 f9 3d 3c a7 90 01 bb e7 7a 11 3c a1 2d 58 3c
       0.0115951635 -0.0019770057 0.0088794 0.0131944725
0002a0 03 80 ea ba 71 29 00 bc a1 84 6d bc 28 89 0a bc
       -0.0017890934 -0.00782238 -0.014496953 -0.008455552
0002b0 8c e2 a1 bb 04 84 03 3c 13 b6 a3 bb d4 4c 8b 3c
       -0.0049403366 0.00802708 -0.00499607 0.017004408
0002c0 e2 ea 24 bc f8 f5 12 bc 48 65 8c 3c 85 cb 92 bb
       -0.010065766 -0.008969776 0.017138138 -0.004479828
0002d0 cf 78 34 bc 4f 6c 79 bc 7a b3 89 bc 55 70 14 bc
       -0.011015131 -0.015223577 -0.016809214 -0.009059985
0002e0 db 66 9d 3a 59 cc 78 bc 93 11 1c 3c 86 19 51 bc
       0.0012008803 -0.015185439 0.009525674 -0.012762433
0002f0 17 a7 f2 bb b8 56 13 bb 53 6b 69 bc 4c 56 82 bc
       -0.0074051726 -0.0022482108 -0.0142467795 -0.01591029
000300 cf 18 b4 3b be 66 1c bc 97 60 f7 3b 31 4d cd bb
       0.0054961215 -0.00954598 0.007549356 -0.0062653054
000310 5a ed 11 bc dd 0b 55 bc de a3 45 3c 39 be 90 3c
       -0.008906687 -0.013003317 0.012062995 0.01766883
000320 50 74 90 bb 07 42 61 b9 87 36 61 bc e4 1c 61 bc
       -0.004408397 -0.00021482269 -0.0137459105 -0.013739798
000330 e5 75 00 bc 7e 9a 1b bb 2f ce 73 bc 6b 4d 63 3c
       -0.007840608 -0.0023743208 -0.014880701 0.013873438
000340 5c 94 7a bb 9b 50 17 3c 13 eb 86 3c 08 50 0e bc
       -0.0038235402 0.009235526 0.016469514 -0.008686073
000350 d2 e4 51 bc db ae f8 3b e2 fd 3e 3c 0b 5a c8 3b
       -0.012810903 0.007589204 0.01165721 0.0061142496
000360 a0 f1 6e 3c 97 54 46 3c c2 83 5c bc b0 41 24 3c
       0.014583975 0.012105129 -0.013459148 0.010025427
000370 24 1e 9c 3b 04 a4 bb b9 21 96 68 3a fa 76 0c ba
       0.004764335 -0.0003578962 0.00088724686 -0.0005358305
000380 d2 38 0f ba ab b0 a5 3a f7 05 0b bb 61 31 b0 3a
       -0.0005463484 0.0012641152 -0.0021213272 0.001344245
000390 9c 40 d5 3b 53 fe b9 3b 5d 67 6b 3c 92 46 f4 3b
       0.006507946 0.0056760698 0.014367905 0.0074547017
0003a0 50 1e 69 bc 17 09 46 bc 6a 70 79 3b 12 0b 78 3c
       -0.0142284185 -0.012087128 0.0038061389 0.015139358
0003b0 e2 69 04 bc f2 c9 27 bc 15 3e 50 3c 0e 09 5c bc
       -0.008081885 -0.010241019 0.012710114 -0.013429893
0003c0 e1 47 8e 3c 06 5e 50 3c a5 65 ea 3b 77 2f 41 bc
       0.017368259 0.012717729 0.0071532303 -0.011791102
0003d0 6f 8f 48 3c 05 fe 90 3c 8a 12 90 3c 6d d5 24 3c
       0.0122412285 0.017699251 0.017586965 0.01006065
0003e0 af b3 6a 3c 56 9f 37 b9 23 25 cd 3b 14 b5 89 3a
       0.0143250665 -0.00017511597 0.0062605306 0.0010506236
0003f0 59 e7 58 bc 3e b2 85 3b 5f 50 12 3c ef 40 c4 ba
       -0.013238751 0.004080086 0.008930295 -0.0014972965

fc.bias f4 [2]
000000 53 68 5d bc 94 20 62 bc
       -0.013513642 -0.013801713
