concept_graphs/models/size_classifier.pth (torch, 26184 bytes, 2 tensors)

fc.weight f4 [2, 3072]
000000 f3 ee 1c bb 09 30 f4 ba a1 ec 9a bc 77 74 d4 bb
       -0.0023946136 -0.0018630038 -0.018911662 -0.0064836103
000010 84 ff 15 3c 9e 01 97 bc 9a ed 6e bc 40 11 a8 bc
       0.009155158 -0.018433388 -0.014583016 -0.020516038
000020 6e 5d ed 3a bb 7f ea bb 46 a2 dc 3b 6e 10 8d bc
       0.0018109509 -0.00715634 0.0067332117 -0.017219748
000030 0f 84 05 bc 88 2f 10 bc 16 1d b6 bb 17 28 b4 bb
       -0.008149161 -0.008800395 -0.0055576665 -0.005497943
000040 1a 87 87 bc 98 52 54 bb 9d 6b 9f bb 26 91 cd 3b
       -0.016543914 -0.0032397863 -0.0048651234 0.0062734066
000050 03 53 f4 bb 5d 83 61 3c 78 98 cf 3b f1 03 99 bc
       -0.007456185 0.01376423 0.0063353144 -0.018678637
000060 04 7a c6 bb 64 99 5c bb 21 68 44 bb cf 09 a8 3b
       -0.006057026 -0.0033660764 -0.0029969292 0.0051281224
000070 5e 98 93 bb 4f 96 44 bc 78 47 9c bc c3 94 dc bb
       -0.0045042476 -0.011998727 -0.019077048 -0.006731601
000080 f9 89 51 3c 8b 3f 96 bb 0b 4f af bb a9 72 83 bb
       0.012789243 -0.0045852116 -0.005349999 -0.0040114713
000090 6a 76 4e 3c c3 37 9f ba 28 d2 11 bc 0f a6 45 bb
       0.012601474 -0.0012147356 -0.008900203 -0.0030158793
0000a0 af eb 14 3c a2 5c a0 ba 21 74 79 bc a1 0f 21 3c
       0.0090893945 -0.0012234638 -0.015225441 0.009830386
0000b0 fa 0a 20 bc b0 bf 15 bc 13 17 38 ba 22 02 03 3b
       -0.009768242 -0.00913994 -0.00070224813 0.0019990285
0000c0 e1 aa 90 bc af 2d a0 bc bf 0f 98 bc 58 28 fe 3b
       -0.017659606 -0.019553034 -0.018562196 0.007756274
0000d0 d7 3c 84 bb 9f f8 6b 3c c8 1f 1b 3c d9 d9 7f bc
       -0.004035573 0.014402538 0.009468026 -0.015615904
0000e0 0d eb 0b bc 97 7a 8f ba a2 cb 9a bb 79 2a 89 bb
       -0.008539927 -0.0010946569 -0.004723982 -0.0041859713
0000f0 3b d5 6d bb c9 79 09 bb 15 99 8e bb c0 32 74 bb
       -0.0036290425 -0.002097713 -0.004351745 -0.0037261695
000100 40 9f 24 bb f7 a7 38 3c d9 a4 9b bb ae 3e 7d bb
       -0.0025119334 0.011270515 -0.004749876 -0.0038642096
000110 28 d0 ce 3b 1c ae ea b9 50 2f 41 bc 67 ba 01 bc
       0.0063114353 -0.0004476168 -0.011791065 -0.007917977
000120 40 f8 76 3b f9 42 d2 3b 5e 37 01 bb 7b d3 05 bb
       0.003768459 0.006416675 -0.001971684 -0.0020420242
000130 e5 a8 d5 bb e7 12 a3 38 37 6c 0f 3b 9d e1 43 3c
       -0.006520378 7.7759665e-05 0.002188457 0.011955646
000140 4e 28 50 bc f0 32 ba bb 9a b5 a2 bb e9 b1 11 bc
       -0.012704922 -0.0056823418 -0.0049654962 -0.008892515
000150 73 0a 09 3c 03 be 92 bc 13 26 04 3a 08 5d fb ba
       0.008364308 -0.01791287 0.0005041074 -0.0019177506
000160 bb 84 42 bc 20 90 a0 bc 99 33 cb 3a 69 c4 22 bc
       -0.011872466 -0.019599974 0.0015503048 -0.009934523
000170 02 73 54 bc fb ce 01 3c 9e 9c 66 bc c4 2e 16 3a
       -0.012966873 0.007922883 -0.014075426 0.00057290145
000180 76 07 3f 3c e2 93 69 3c b9 b5 b6 3a ce 4a 56 3c
       0.011659494 0.014256449 0.0013939656 0.013079358
000190 e1 8d e6 3b 87 5c a3 bb 61 97 67 bc bc db 92 3a
       0.0070359563 -0.0049853954 -0.014135213 0.0011204402
0001a0 ae 35 04 bc 53 37 6c 3c 6b f4 c0 3a da d0 17 3b
       -0.008069439 0.014417487 0.001472128 0.0023165257
0001b0 cf 18 99 bb e6 44 e3 bb 50 32 4b bc 5f 49 72 bc
       -0.004672147 -0.0069357036 -0.012402132 -0.014788001
0001c0 25 3f aa bb 6f 2c 20 bc b3 da 48 3c d0 7b 87 3b
       -0.0051955157 -0.009776219 0.012259173 0.0041346326
0001d0 b7 84 00 bc cf ac 0c bc 60 31 2c 3c d6 cd c7 3b
       -0.007844142 -0.008586123 0.010509819 0.0060975356
0001e0 f7 14 b7 bb 87 dc 51 3c 0a c3 f0 b9 ec a2 e3 3b
       -0.005587216 0.0128089255 -0.00045921683 0.006946912
0001f0 1f 97 1c bb 9b 7b 2f bc 2c 6b 24 ba a9 4b 8c ba
       -0.0023893786 -0.010710622 -0.00062720734 -0.0010703701
000200 04 53 08 bc bb 30 5e 3b da 21 28 3b 42 84 a8 bc
       -0.008320574 0.0033903557 0.0025654943 -0.020570878
000210 fd 35 64 3c 1a 3e 45 bb 6d a8 4d 3c 36 6f 80 bc
       0.013928887 -0.003009683 0.012552363 -0.01567803
000220 4d d4 fb 3b aa fa 25 3c 41 7f fa 3b 9d 8a 68 bc
       0.0076852203 0.010130564 0.0076445644 -0.014193204
000230 de 19 27 3c 5a ef 5c bc de 0f e7 bb 31 c5 82 bc
       0.010199038 -0.0134848 -0.007051452 -0.015963169
000240 0f 92 6f 3b 34 cc 7d ba f5 bc f7 3b f2 27 6e 3c
       0.0036555564 -0.0009681613 0.007560367 0.014535891
000250 1b 40 7a bc 82 6d 42 bc af 76 fb b9 ba 61 aa bc
       -0.015274073 -0.011866929 -0.00047962877 -0.020798553
000260 95 d2 53 3c 84 c3 52 bc 1f 87 80 bc dc 64 0c bc
       0.012928625 -0.012863997 -0.01568943 -0.008568969
000270 b0 0f 48 bc 63 dc 05 3b 9e be a1 bc 65 86 ad bc
       -0.012210771 0.002042555 -0.019744214 -0.021182248
000280 e3 db 21 3c 6d 2d a9 bc b1 cc 94 bc 21 3f 81 3b
       0.009879085 -0.020651544 -0.01816401 0.003944293
000290 c8 77 6c bc 7e f2 67 3c 7c 8e 50 bc 0e 4e 84 3b
       -0.014432855 0.014156936 -0.012729283 0.004037625
0002a0 be e8 63 bc 72 ed 2c bc 4b 6a 2f bb 22 7d c4 3b
       -0.0139104705 -0.010554658 -0.0026766236 0.0059963623
0002b0 2f 21 3f 3b 5d 60 6b 3c fa b0 37 bc 4f 8a 80 bc
       0.0029164066 0.0143662365 -0.011211628 -0.01569095
0002c0 bb 94 3e bc 32 f1 53 bc 78 34 a1 bc 91 8f 40 bc
       -0.01163214 -0.012935923 -0.01967834 -0.011752979
0002d0 56 3d 85 bc 72 0a 53 bc 7d 14 61 b9 8f a1 31 3b
       -0.016264599 -0.012880908 -0.00021465305 0.0027104353
0002e0 d0 16 0c bc d0 69 20 3c 1f a7 6e 3c 6c e8 21 3c
       -0.008550361 0.009790853 0.014566212 0.009882074
0002f0 c2 f2 ac bc 5f 5c 5c 3b 31 6b 93 bc cd ab 42 bb
       -0.02111185 0.0033624393 -0.017995449 -0.0029704452
000300 cd bc 86 3a b6 0e 7f bc 9d 17 2d 3c 35 31 fd bb
       0.0010279656 -0.015567472 0.010564712 -0.007726813
000310 af 24 92 ba 80 f3 65 bc a7 6a ae bb 74 ef 43 3c
       -0.0011149849 -0.014035106 -0.0053227725 0.011958946
000320 90 84 07 bc e1 ff 85 bb a0 21 e1 ba 45 00 02 bc
       -0.008271351 -0.004089341 -0.0017176159 -0.007934635
000330 26 5e 23 bc 36 68 7e bc ea 4f eb 3b 71 8a 8a 3c
       -0.009971177 -0.0155277755 0.0071811574 0.016911717
000340 42 9c bc ba 97 80 56 bc 70 20 46 bb 5d c9 8b 39
       -0.001438983 -0.013092182 -0.0030231737 0.00026662173
000350 60 1e 1b 3a 4b 66 e8 ba 1a 21 77 bb 79 e5 59 3c
       0.0005917307 -0.0017730681 -0.003770894 0.013299339
000360 7f 71 0a ba 68 4a 20 3c e6 0e 62 3c 87 ca 76 bc
       -0.00052811945 0.009783365 0.013797497 -0.015062935
000370 71 df 4c 39 63 7b 68 bc dd ca 9b bb 9b 78 25 bc
       0.00019538194 -0.014189574 -0.004754408 -0.010099555
000380 8d d8 a8 bc da ca 89 bb e6 05 21 3c 2a 98 90 bb
       -0.020611072 -0.00420509 0.009828066 -0.0044126706
000390 22 49 38 bb 5a 70 4d bb e8 ae d5 3b ce 44 43 bc
       -0.0028119762 -0.0031347484 0.0065210946 -0.01191826
0003a0 b9 a2 40 bb 02 39 8e bc d9 e3 e9 3b 98 18 8b bc
       -0.0029393865 -0.017361168 0.0071377573 -0.0169795
0003b0 11 92 26 bc be 63 6b 3c cf 36 a1 3b 7f 07 7e 3c
       -0.010166661 0.014367042 0.004919864 0.015504717
0003c0 54 e5 e8 bb 1f 88 1f 3c e4 f8 f1 bb e6 a2 2d bb
       -0.007107416 0.009737044 -0.0073844064 -0.00264948
0003d0 89 d5 df 3b e9 d5 89 bc b9 42 0e 3b b3 9b 58 bc
       0.0068308753 -0.016825633 0.002170725 -0.013220715
0003e0 37 04 53 bc 90 b3 ed bb 99 48 20 3c de 8a 2c bc
       -0.012879423 -0.0072540715 0.009782934 -0.010531155
0003f0 4f 94 83 bc 65 75 10 bc 6f f8 ba bb 33 9a 5b bc
       -0.01606193 -0.008817052 -0.005705885 -0.013403463

fc.bias f4 [2]
000000 0b 0c 54 bc e2 81 70 3b
       -0.012942324 0.003669851
