concept_graphs/working/linear-classifier_single-body_2d_3classes_multi-class.pt (torch, 59732 bytes, 6 tensors)

output_fc0.weight f4 [2, 2352]
0	0xbc1f1f32	-0.009712027
1	0x3bcd7863	0.0062704547
2	0xbc6e3b21	-0.014540465
3	0x3b0c4691	0.0021404366
4	0x3c9fa87e	0.019489523
5	0xbbed2c12	-0.0072379196
6	0xbad04a6c	-0.001589132
7	0x3bb56ea9	0.0055368734
8	0x3c74d939	0.014944368
9	0xbc590858	-0.013246618
10	0xbc8d032c	-0.017213427
11	0xbc3bba7c	-0.011458036
12	0x3c954d86	0.018225443
13	0x3c30e939	0.010797792
14	0xba307def	-0.0006732633
15	0x3c91726c	0.017754756
16	0xbc58443e	-0.013199864
17	0xbc72bd91	-0.014815704
18	0xbba5b941	-0.0050574844
19	0xbae25506	-0.0017267771
20	0x3a332ab7	0.0006834673
21	0xbc178ac3	-0.009249392
22	0x3b88904e	0.004167593
23	0x3c4d29b9	0.0125221545
24	0x3c72f854	0.014829714
25	0x3c725e75	0.014793028
26	0xbc240604	-0.0100112
27	0x3bde4134	0.006782675
28	0x3bd667df	0.006543144
29	0x3aa629bb	0.0012677232
30	0x3c9118ee	0.017712083
31	0x3c350d1b	0.011050488
32	0x3c9ff537	0.019526107
33	0xbc61cdcc	-0.013781976
34	0x3ae75815	0.0017650152
35	0xbbab2657	-0.0052230763
36	0xbbdfa067	-0.0068245414
37	0x3ad5e4dc	0.0016318816
38	0xbb88d329	-0.004175563
39	0x3b88a7e8	0.0041704066
40	0x3c9e364b	0.019312998
41	0xbb83a1c0	-0.004017085
42	0x3b76b4ee	0.0037644464
43	0xbc8923e4	-0.016740747
44	0x3b818a88	0.003953282
45	0xbbce767f	-0.006300747
46	0xbb364030	-0.0027809255
47	0xba4b110c	-0.00077463756
48	0x3c3d25cb	0.011544655
49	0x3c2ec745	0.010667627
50	0xbbcc59a9	-0.0062362743
51	0x3c101202	0.008793356
52	0xbc494eca	-0.012286851
53	0x3b545895	0.0032401432
54	0xbc159ca7	-0.009131587
55	0xba984aba	-0.001161895
56	0x3c18b17a	0.009319657
57	0x3ca8700f	0.020561246
58	0x3c9c0070	0.019043177
59	0x3a606192	0.0008559461
60	0x3c8f7908	0.017513767
61	0xbc40324e	-0.011730744
62	0x3b29d75d	0.002591572
63	0x3c7286b9	0.014802628
64	0xbc5d406e	-0.013504131
65	0x3bc9e566	0.0061613796
66	0x3c48a042	0.01224524
67	0xbc47e0e1	-0.012199611
68	0x3af95c58	0.0019024713
69	0xbc23ff03	-0.01000953
70	0xbc0600e8	-0.008178927
71	0xbc858c40	-0.016302228
72	0xbc47a84e	-0.012186123
73	0xbc1dfe95	-0.009643217
74	0xbbd2cf77	-0.006433423
75	0x3cac307f	0.021019218
76	0xbb37848e	-0.0028002593
77	0x3c6ed47a	0.014577026
78	0xbc79b519	-0.015240931
79	0xbba8862d	-0.005142948
80	0x3c86fcb3	0.016477918
81	0x3c155bab	0.009116094
82	0xbc5b525a	-0.013386333
83	0xbc251fa0	-0.010078341
84	0x3c38e8ab	0.011285941
85	0xbbd731d2	-0.0065672183
86	0xbc705bba	-0.014670307
87	0x3c66e783	0.014093283
88	0x3badaccb	0.0053001395
89	0x3bbfa3d4	0.0058483873
90	0xbca45c90	-0.020063668
91	0xbc83d832	-0.0160943
92	0x3bb01e63	0.005374716
93	0xbcbb4137	-0.022858245
94	0x3c2915ad	0.010320109
95	0xbca3891e	-0.019962844
96	0xbc6f25f2	-0.014596449
97	0x3c9391ae	0.018013801
98	0xbbeaf793	-0.0071706264
99	0xbc31d3e2	-0.010853739
100	0xbbf0ede5	-0.007352578
101	0xbbaae937	-0.0052157897
102	0xbc1db5a1	-0.009625823
103	0xbbb4b0a5	-0.0055142217
104	0x3b0c0fcb	0.0021371718
105	0x3c0b171f	0.008489399
106	0xbba75390	-0.005106397
107	0x3caa84c6	0.020815264
108	0xbc5725a2	-0.013131531
109	0x3bc008fa	0.005860445
110	0x3c9795c4	0.018504031
111	0x3c9c77e3	0.019100135
112	0xba9b31d1	-0.0011840408
113	0x3c12b166	0.008953428
114	0x3c1ae043	0.009452882
115	0x3c1734c3	0.009228888
116	0xbc886cd8	-0.016653463
117	0xbc951ef5	-0.018203238
118	0x3c94fa1d	0.01818567
119	0xbcaac9eb	-0.020848235
120	0xbcd3ba5c	-0.025845699
121	0xbcac3a5c	-0.021023922
122	0xbca94cf2	-0.020666573
123	0xbbe73cab	-0.0070567927
124	0x3c91c3ed	0.01779362
125	0x3c3d5fb6	0.011558464
126	0x3cb342c7	0.021882428
127	0x3c3fb9d8	0.011702023
128	0xbc789e47	-0.015174455
129	0x3b2a7756	0.0026011071
130	0xbc4ce48b	-0.012505661
131	0x3b3f7cd5	0.0029218693
132	0xbc01ae85	-0.007915144
133	0xbbaa96d9	-0.0052059707
134	0x3c7b1c76	0.01532661
135	0x3c1259a4	0.008932505
136	0xbbd3bc01	-0.006461621
137	0x3c7c10c5	0.015384858
138	0x3c44558a	0.011983285
139	0x3c9b8c3a	0.018987764
140	0x3c185f3b	0.009300048
141	0x3ac8d1eb	0.001532135
142	0xbc47e48d	-0.012200487
143	0xbc846e11	-0.016165765
144	0x3c1fa484	0.009743813
145	0x3c9cc33d	0.019136066
146	0xbc8febb8	-0.017568454
147	0xbc97ef5e	-0.018546756
148	0xbc8f5e20	-0.017500937
149	0xbd26f583	-0.040761482
150	0xbc0772ed	-0.008267147
151	0xbd0263de	-0.031833522
152	0xbc907c55	-0.017637411
153	0x3cbc68d6	0.022999208
154	0xbb6e12ac	-0.0036327047
155	0x3cbd6144	0.023117669
156	0x3be4969d	0.0069759623
157	0x3af2bdb4	0.0018519671
158	0xbbe6a40e	-0.0070386
159	0xbc76c1c9	-0.01506085
160	0xbc5734ed	-0.013135177
161	0xbc3ad1f5	-0.011402597
162	0x3c88d313	0.01670221
163	0xbbd74c43	-0.0065703704
164	0x3c84f54d	0.01623025
165	0x3b4cbdde	0.00312411
166	0x3ba43b55	0.0050119557
167	0xbc7e7c70	-0.015532598
168	0x3c275ad6	0.010214528
169	0x3b92e88a	0.004483287
170	0x3c8928a3	0.01674301
171	0xbc7c1f49	-0.015388318
172	0x3c300d06	0.0107452925
173	0x3c7dff6a	0.01550279
174	0xbc45ed8d	-0.012080562
175	0x3c4c0ce1	0.012454242
176	0xbcd79858	-0.02631776
177	0xbd010de7	-0.0315074
178	0xbcde1409	-0.027109163
179	0xbc3f54e9	-0.011677959
180	0xbb15960a	-0.0022825026
181	0x3ca1925c	0.01972311
182	0x3a2b601f	0.00065374555
183	0x3cd55397	0.026040835
184	0xbb1a7965	-0.0023570892
185	0xbb2d9210	-0.0026484765
186	0x3aaf81f9	0.0013390175
187	0x3c533248	0.012890406
188	0x3c7935f1	0.015210615
189	0x3c2f2932	0.010690974
190	0x3c5fe7f3	0.013666141
191	0x3c35d6ab	0.011098544
192	0x3c2c74c6	0.010525888
193	0x3bed6119	0.007244241
194	0xbbf2deef	-0.0074118297
195	0xbc8214be	-0.015879031
196	0x3ca572ba	0.020196307
197	0x3cb03540	0.021509767
198	0xbbfd358d	-0.007727331
199	0xbad557cc	-0.0016276776
200	0xbc61384f	-0.013746335
201	0x3c9a5bb9	0.018842565
202	0xbc764c6a	-0.015032867
203	0xbc026512	-0.007958667
204	0x3b26f3f3	0.0025474995
205	0xbc639249	-0.013889858
206	0xbd35d036	-0.04438802
207	0xbd1d1331	-0.03834838
208	0xbc399b4c	-0.01132853
209	0x3c3d7440	0.011563361
210	0x3ca6c8f7	0.0203595
211	0x3ccbc59d	0.024874503
212	0x3d0d8cbe	0.03455805
213	0x3c157345	0.009121721
214	0x3cdd040c	0.026979469
215	0x3c866406	0.016405117
216	0xbc7f8a13	-0.015596884
217	0x3c207bd0	0.009795144
218	0xbc23862c	-0.00998072
219	0x3ca614e9	0.020273643
220	0xbbb8eac4	-0.0056432206
221	0x3c392d55	0.011302312
222	0x3c35d14b	0.011097263
223	0xbb9836f5	-0.0046452233
224	0x3c9cdb62	0.019147579
225	0x3c3a740d	0.011380208
226	0x3bd93022	0.0066280523
227	0x3c3df188	0.01159323
228	0x3c92dbdc	0.017927103
229	0x3c4073c9	0.011746355
230	0x3c0f759d	0.008756069
231	0x3c9be6f9	0.019031035
232	0xbb38d27f	-0.0028201637
233	0xbbcc5d67	-0.0062367204
234	0xbd308bdd	-0.043102134
235	0xbca2ef2a	-0.019889433
236	0xbcb7cba5	-0.022435972
237	0x3c35c439	0.011094146
238	0x3ce97167	0.028496457
239	0x3d09e7d2	0.033668347
240	0x3cd55f06	0.026046287
241	0x3ce87e48	0.028380528
242	0x3d08aad9	0.033366058
243	0x3bff06db	0.0077827997
244	0x3c3e4871	0.011613951
245	0x3cb67983	0.022274738
246	0xbc6cc80d	-0.014451993
247	0xbc353368	-0.0110596195
248	0xbc248fe6	-0.010044074
249	0xba33e346	-0.00068621745
250	0xbc51957e	-0.012791989
251	0xbb011fab	-0.0019702713
252	0x3c37a591	0.011208908
253	0xbc94e24a	-0.01817431
254	0xbc122042	-0.008918824
255	0xba6cdd4b	-0.0009035661

output_fc0.bias f4 [2]
0	0xbba40a9b	-0.005006147
1	0x3c61b28f	0.013775482

output_fc1.weight f4 [2, 2352]
0	0xbbe2c358	-0.0069202594
1	0x3c497fee	0.012298567
2	0xbc824be5	-0.01590533
3	0x3c9aa808	0.018878952
4	0xbba648d7	-0.005074601
5	0xbc6ea655	-0.014566024
6	0x3b3e74ed	0.0029061392
7	0x3c541f38	0.012946896
8	0xbc24e6f7	-0.010064832
9	0xbc670e6c	-0.01410256
10	0x3c2eb53c	0.010663327
11	0xbba02be3	-0.004888044
12	0x3c0914d7	0.008366785
13	0xbc77b7b5	-0.015119483
14	0x3c1fc2d9	0.009751045
15	0xbc96d64a	-0.018412728
16	0x3ab0e686	0.0013496436
17	0xbb195805	-0.002339841
18	0x3bc7c703	0.006096722
19	0x3ba1d319	0.004938495
20	0xbbd50f8b	-0.006502097
21	0xbc5655ee	-0.013082011
22	0xbca74dd3	-0.020422852
23	0xbc92722c	-0.017876707
24	0xbc8cc085	-0.017181644
25	0x3b0769f2	0.0020662514
26	0x3bc5657e	0.0060240617
27	0xbc6fcb40	-0.014635861
28	0x3c48e877	0.012262455
29	0xbba2b676	-0.0049655987
30	0x3ca24cec	0.01981207
31	0xbaa1fb9a	-0.0012358308
32	0xbc0448c6	-0.008073991
33	0xbbb9eafd	-0.0056737647
34	0xbca8757f	-0.020563839
35	0x3c1efa13	0.009703177
36	0x3c2f9927	0.010717667
37	0xbbdbf3cc	-0.0067124125
38	0x3c1a9a13	0.009436148
39	0xbc61d007	-0.013782508
40	0x3c721a2f	0.0147767505
41	0xbc48eb5c	-0.012263145
42	0xbbbe042c	-0.005798837
43	0x3c2ee2ec	0.01067422
44	0x3c858f8c	0.0163038
45	0xbae7d35a	-0.0017686889
46	0xbc0881bc	-0.008331712
47	0x3b8b0c2a	0.0042433934
48	0x3c81e482	0.015856031
49	0xbca5f799	-0.020259665
50	0xbc926a1e	-0.017872866
51	0xbb436ebc	-0.0029820642
52	0x3a47c90d	0.00076212065
53	0xbc8b63e6	-0.017015409
54	0xbc440c4a	-0.011965821
55	0x3c3e66ca	0.0116211865
56	0xbc01774a	-0.007901976
57	0x3c8e56b0	0.01737532
58	0x3ca2be59	0.019866155
59	0xbca34e88	-0.019934908
60	0x3c83aec3	0.016074544
61	0x3c3292c1	0.010899247
62	0xba21be92	-0.000617006
63	0x3c97e23f	0.0185405
64	0xbb9ee00a	-0.004848485
65	0xbaa77df0	-0.0012778621
66	0xbc81bc98	-0.015836999
67	0xbc91e265	-0.017808149
68	0xbbf91d93	-0.0076024025
69	0x3ca6bcb3	0.02035365
70	0x3c67020d	0.01409961
71	0x3b908175	0.0044099637
72	0x3c9cf9f2	0.019162152
73	0xbbe3d0c8	-0.006952379
74	0xbc7fbc1d	-0.015608815
75	0xbc26200d	-0.010139477
76	0xbc8a462f	-0.01687917
77	0xbca9edf9	-0.020743357
78	0x39a97cea	0.0003232726
79	0x3c81f98e	0.015866067
80	0xbbfaf261	-0.0076582883
81	0x383cc537	4.5006364e-05
82	0x3ca6f279	0.020379292
83	0x3c2dc5b5	0.010606219
84	0x3c892627	0.016741825
85	0xbca7faa7	-0.020505263
86	0x3c9efcf6	0.01940773
87	0x3c89d478	0.016824946
88	0x3c25b4e1	0.010113926
89	0x3c15eb50	0.009150341
90	0x3bfae437	0.0076566
91	0x3a893fea	0.0010471318
92	0x3b8cd980	0.004298389
93	0x3b552dfd	0.0032528632
94	0x3c5fcc76	0.013659587
95	0xbc4306e3	-0.011903497
96	0x3c4616a5	0.01209036
97	0xbc859c4c	-0.01630988
98	0xbc4193c1	-0.011815012
99	0xbc433ccf	-0.011916353
100	0x3b35caae	0.0027739215
101	0x3c8ef094	0.017448701
102	0xbb9d106e	-0.0047932183
103	0xbb7e8782	-0.0038838093
104	0xbca1d370	-0.019754142
105	0x3b3290e8	0.0027247015
106	0xbc752b9e	-0.014964012
107	0x3c538abe	0.012911497
108	0xbc54d85b	-0.012991036
109	0xbc8d4eeb	-0.017249545
110	0xbca8dc91	-0.020612987
111	0x3b0cc476	0.0021479405
112	0x3c52c5d5	0.01286455
113	0x3c14886a	0.009065727
114	0x3c5e7754	0.013578255
115	0xbc1fe790	-0.009759799
116	0x3c8ee3e0	0.017442644
117	0x3c327fa6	0.010894692
118	0x3bea7069	0.0071545136
119	0x3c265d26	0.010154044
120	0xbb4ee24b	-0.0031567987
121	0x3c1959ee	0.00935982
122	0xbc17bacf	-0.009260847
123	0xbc0885ce	-0.008332683
124	0x3c8b12d7	0.016976757
125	0x3caa068c	0.020755075
126	0xbc452ffd	-0.012035367
127	0xbc9e6410	-0.019334823
128	0xbc9132a2	-0.017724339
129	0xbc743624	-0.014905486
130	0x3c74a760	0.014932483
131	0x3c18116a	0.009281496
132	0xbba15aea	-0.004924168
133	0xbc8c4fae	-0.017127838
134	0x3c3de630	0.0115905255
135	0xbc32a18c	-0.010902774
136	0x3c935ccc	0.017988585
137	0x3c586493	0.0132075725
138	0x3a9cb944	0.0011957069
139	0xbb18c2aa	-0.0023309388
140	0xbae1f85d	-0.0017240156
141	0x3ae83ebf	0.0017718895
142	0x3c1780e5	0.009247039
143	0x3b146715	0.002264445
144	0x3bd92239	0.006626394
145	0x3c2118bb	0.009832556
146	0x3c123892	0.00892462
147	0xbc1c265a	-0.009530628
148	0x3bb2128a	0.005434339
149	0x3b31ad21	0.002711125
150	0xbc013591	-0.007886306
151	0x39703474	0.00022907724
152	0x3cb04ac7	0.021520032
153	0x39034bec	0.00012521417
154	0x3c375506	0.011189705
155	0x3ca0737a	0.019586314
156	0x3b9bf869	0.0047598374
157	0xbc90b0ab	-0.017662367
158	0xbbc200dc	-0.0059205126
159	0x3c8459cd	0.016156102
160	0xba6a56c5	-0.0008939321
161	0x3bd7f905	0.0065909647
162	0x3c826974	0.015919425
163	0x39b76e40	0.00034986623
164	0x3bd8df34	0.0066184048
165	0x3a9ed0ec	0.0012116707
166	0x3c21b15a	0.009868944
167	0xbc51c2d2	-0.012802796
168	0x3c56a20e	0.01310016
169	0x3c8ae9a5	0.016957114
170	0xbc4ba3d6	-0.012429198
171	0x3abe1f32	0.0014505147
172	0xbc0df46c	-0.008664232
173	0xbc547c36	-0.012969067
174	0xbc10d394	-0.008839507
175	0x3b90f38f	0.0044235657
176	0x3cbd742d	0.023126686
177	0x3c62855a	0.013825739
178	0xbbc72cd1	-0.0060783406
179	0x3cf06401	0.02934456
180	0xbc23c38e	-0.009995354
181	0x3c8a6041	0.0168916
182	0x3c4dbef5	0.012557735
183	0x3b7e3c99	0.0038793443
184	0xbc76d102	-0.01506448
185	0xbb8d8b2e	-0.00431957
186	0x3bdf20ae	0.0068093156
187	0xbc28667c	-0.01027834
188	0xbc387614	-0.011258621
189	0x3b975709	0.0046185297
190	0xbc432afe	-0.011912106
191	0xbc27c8d5	-0.010240753
192	0x3c93620f	0.017991094
193	0xbc894c71	-0.016760083
194	0xbc55f51d	-0.013058928
195	0x3b54a7c4	0.003244863
196	0x3ca2f941	0.019894244
197	0x3aac59e1	0.0013149345
198	0xbb9e4bb3	-0.0048308014
199	0xbb9eeb28	-0.00484981
200	0x3bd19b15	0.006396661
201	0x3c86b373	0.01644299
202	0xbb9f836c	-0.0048679616
203	0xbada5fb8	-0.0016660606
204	0xbc3947e5	-0.011308645
205	0x3cd3d7ad	0.025859678
206	0x3d015604	0.03157617
207	0x3cda6099	0.02665739
208	0x3a568561	0.0008183327
209	0x3ca4b09e	0.020103749
210	0x3c99f6c6	0.018794429
211	0x3a08d1fb	0.0005219278
212	0x3ce35d68	0.0277545
213	0x3c76cc03	0.015063289
214	0xbc8a3800	-0.016872406
215	0x3ba33253	0.0049803643
216	0x3ca28676	0.019839507
217	0x3b17e338	0.0023176204
218	0xbc9ffcca	-0.019529719
219	0xbbbad673	-0.005701834
220	0x3ad4c19f	0.001623202
221	0x3c9a8dfe	0.018866535
222	0xba52fea9	-0.00080488116
223	0xbab814cb	-0.0014044283
224	0xbba46495	-0.005016873
225	0x3c16976c	0.009191375
226	0x3c840e2d	0.01612004
227	0x3af872d8	0.0018955125
228	0xbc911e8c	-0.017714761
229	0x3c886a10	0.016652137
230	0x3c94de74	0.01817248
231	0x3b7f58dd	0.0038962879
232	0x3c5668bc	0.013086494
233	0x3c7e75ec	0.015531044
234	0x3c694933	0.014238643
235	0x3d318613	0.043340754
236	0x3c982f17	0.018577142
237	0x3ce92690	0.02846077
238	0x3c8c28dd	0.017109329
239	0x3cd7a908	0.026325718
240	0x3c8d4d0b	0.017248651
241	0x3ca457a8	0.020061329
242	0xbbe1b7ca	-0.0068883644
243	0xbc5c1589	-0.013432869
244	0xbc4ecf2b	-0.012622635
245	0xb9dd4867	-0.0004220635
246	0xbc1481a0	-0.009064108
247	0x3c994951	0.018711718
248	0x3c74a0f7	0.014930955
249	0x3b9c7299	0.0047744033
250	0xbb12b4b4	-0.002238554
251	0xbc9ea43a	-0.019365419
252	0x3c2ac8e1	0.01042387
253	0x3bc6cdf1	0.0060670306
254	0xbc986f56	-0.018607777
255	0x3c21f6ad	0.009885472

output_fc1.bias f4 [2]
0	0xbc8b871b	-0.017032197
1	0xbc8ae567	-0.01695509

output_fc2.weight f4 [2, 2352]
0	0x3c3bd623	0.011464628
1	0x3c9cd5fb	0.019145003
2	0x3b7919cf	0.0038009768
3	0x3ca872e8	0.020562604
4	0x3c6fd73c	0.014638718
5	0x3cbc2e80	0.022971392
6	0x3cc9ddf7	0.024641974
7	0x3c127fea	0.00894163
8	0x3bdfc178	0.006828483
9	0x3bf754db	0.0075479574
10	0xbc20ddbd	-0.0098184915
11	0x3be8f726	0.0071095405
12	0xbb65daaf	-0.0035072973
13	0xba0b7f3c	-0.00053213886
14	0x3ba2b1f9	0.0049650637
15	0x3cb177c0	0.021663547
16	0x3cb498eb	0.022045573
17	0x3bd125eb	0.006382694
18	0xbb3133b2	-0.002703887
19	0x3c0e7764	0.008695457
20	0x3b095194	0.0020953165
21	0x3be05b84	0.006846847
22	0x3b8d8473	0.0043187677
23	0xbc2d8daa	-0.010592857
24	0x3cb1a2de	0.021684106
25	0x3ccbc83d	0.024875754
26	0x3c346d62	0.011012407
27	0x3cd76cdb	0.026297024
28	0xbbcbcf9b	-0.006219817
29	0xbc0e2ce5	-0.008677696
30	0x3c72f234	0.014828254
31	0xbb737058	-0.003714582
32	0x3cad2822	0.0211373
33	0x3c551e29	0.013007679
34	0x3c0b9ba1	0.008520992
35	0x3b335259	0.0027362315
36	0xbb116b69	-0.0022189266
37	0xbbc97668	-0.0061481483
38	0x3bd5e9aa	0.006528099
39	0x3a6b5718	0.00089775166
40	0x3b2b3a36	0.0026127226
41	0x3cb6772e	0.022273626
42	0x3cbeb361	0.023278894
43	0xbc0656d5	-0.008199413
44	0x3c314575	0.0108197825
45	0x3c5c8718	0.013459943
46	0x3c8db41b	0.017297795
47	0x3bbfd89e	0.00585468
48	0x3713b16a	8.80319e-06
49	0x3cc31977	0.023815854
50	0x3c54acb6	0.012980631
51	0x3c94aaf4	0.018147923
52	0x3c05db5a	0.008169973
53	0xbc2ae507	-0.010430581
54	0x3c1af03f	0.009456693
55	0x3c230ec5	0.009952252
56	0xbc5b4d91	-0.0133851925
57	0xba2040cf	-0.0006113173
58	0xbb88c0b1	-0.004173361
59	0xbbbe9e62	-0.0058172205
60	0x3c777bf7	0.015105239
61	0x3c538fe7	0.012912727
62	0x3cd24fc2	0.025672797
63	0x3cccb813	0.024990117
64	0x3c967a63	0.018368905
65	0x3c06b47b	0.008221741
66	0x3cc0dc8c	0.023542665
67	0x3c6e46fc	0.014543291
68	0xbbdddf03	-0.00677097
69	0x3bdf67b0	0.0068177804
70	0x3c9319cf	0.017956642
71	0xbc6d606b	-0.01448832
72	0x3c1d4b03	0.009600404
73	0x3c0825c6	0.008309787
74	0xbc6e6d0f	-0.014552369
75	0x3a54b398	0.000811392
76	0xbb7ff445	-0.0039055508
77	0xb9f66f95	-0.00047003911
78	0xbb92d02a	-0.0044803815
79	0xbb402506	-0.0029318943
80	0xbc339fce	-0.010963393
81	0x3b6f0024	0.003646859
82	0x3c422583	0.011849764
83	0x3b7a3fe3	0.0038185052
84	0x3cbe7ebe	0.023253795
85	0xbc66cdae	-0.014087124
86	0x3cbe8996	0.023258965
87	0x3c4b0982	0.012392404
88	0x3ba41077	0.0050068456
89	0x3c123a27	0.008924997
90	0xbc2fcbef	-0.010729774
91	0xbc039a65	-0.008032416
92	0x3c21e756	0.009881815
93	0x3c6595e4	0.0140127875
94	0xbc35b17b	-0.011089678
95	0x3cbefcd1	0.023313912
96	0xbc471dbd	-0.012153086
97	0xbc4d82dd	-0.012543407
98	0x3c8ed76d	0.017436707
99	0x3ca33bfc	0.019926064
100	0xb9912e9e	-0.00027691288
101	0xbc57bde9	-0.013167837
102	0x3ccda7b4	0.025104381
103	0x3c9333a5	0.017968962
104	0x3ba4e397	0.0050320136
105	0x3c5593aa	0.013035694
106	0x3cd2737b	0.025689831
107	0xb921a040	-0.00015413854
108	0xba9444cf	-0.001131201
109	0x3cc1f990	0.023678571
110	0xbc43dcfe	-0.011954544
111	0x3a2d0921	0.00066007866
112	0x3c9638bd	0.018337602
113	0xbc3ccf71	-0.011524067
114	0xbc287e80	-0.010284066
115	0xbbb5bb52	-0.005546012
116	0x3cbc9573	0.023020482
117	0xbb9cc9a9	-0.004784782
118	0x3cb366c5	0.02189959
119	0x3c7fe22c	0.015617888
120	0x3ad4f02e	0.0016245896
121	0x3c0c5b12	0.008566635
122	0x3b06d78d	0.0020575256
123	0x3c9271d0	0.017876536
124	0x3b1fd7c4	0.002439008
125	0x3c932c9d	0.01796561
126	0x3c92a653	0.017901575
127	0x3c8a483c	0.016880147
128	0xb87fb26f	-6.0962917e-05
129	0x3b587719	0.0033029972
130	0x3c62bd7c	0.013839122
131	0x3c80a47f	0.015703438
132	0x3aaa7745	0.0013005516
133	0x3b912942	0.004429967
134	0x3bdd38c2	0.006751151
135	0x3c4553fe	0.012043951
136	0x3c58ed1a	0.013240123
137	0xbc028ca6	-0.0079681035
138	0x3cd50948	0.026005402
139	0x3ccd8429	0.025087433
140	0xbc4872f1	-0.012234435
141	0x3c3da879	0.011575812
142	0x3bae53b3	0.0053200363
143	0x3c9033a6	0.017602753
144	0x3c5e68c4	0.013574783
145	0x3b052757	0.0020317638
146	0x39bb7333	0.0003575325
147	0x3caa2145	0.020767817
148	0xbc490f83	-0.012271765
149	0xbc94cd61	-0.018164339
150	0xbcb0d35b	-0.021585157
151	0xbc4bedde	-0.012446849
152	0xbc3ad15d	-0.011402455
153	0xbb86ba29	-0.0041115475
154	0x3b8d7c08	0.004317764
155	0xbbbff78f	-0.0058583687
156	0x3b88cb3e	0.004174619
157	0xbb234684	-0.0024913857
158	0x3b331e24	0.0027331198
159	0x3bca184a	0.0061674463
160	0x3a80f32e	0.0009838098
161	0xbbb7f9de	-0.0056145033
162	0xbaf1bac0	-0.0018442497
163	0x3c9e3ec2	0.019317035
164	0x3cc61e5a	0.024184395
165	0xb9f13769	-0.00046008386
166	0xbc364a89	-0.011126169
167	0x3c8aeec9	0.016959565
168	0x3cc5dd3e	0.024153348
169	0x3cc61f7b	0.024184933
170	0xbc1e4d4f	-0.0096619865
171	0x3afb8dbb	0.0019192019
172	0x3ac1993a	0.0014770397
173	0x3aa427cb	0.0012524066
174	0x3bcd22e3	0.0062602623
175	0x3bd61ad4	0.00653396
176	0xbba32be8	-0.0049795993
177	0x3bdd7535	0.006758357
178	0x3bbed401	0.0058236127
179	0xbd0a4983	-0.033761512
180	0xbcd6e8b2	-0.026234005
181	0xbc8e0d75	-0.017340401
182	0xbd0117b5	-0.03151675
183	0xbc9d0bbd	-0.019170636
184	0xbcda4326	-0.026643347
185	0xbb825193	-0.0039770096
186	0x3b95030b	0.004547482
187	0x3b9bf8ad	0.004759869
188	0x3b325abb	0.0027214724
189	0x3cae8b30	0.021306604
190	0xbc3b1633	-0.011418867
191	0xbb34f9fa	-0.0027614818
192	0xbc6f8d06	-0.014621025
193	0x3cb7bf73	0.022430157
194	0xbaefabe7	-0.0018285484
195	0x3c6bf617	0.014401934
196	0xbc5f73e3	-0.013638469
197	0xbc4930c8	-0.012279697
198	0x3ae515b5	0.0017477783
199	0x3c26f7c5	0.010190909
200	0x3c6f2a95	0.014597555
201	0xbc0d644a	-0.008629868
202	0x3b65afb4	0.0035047354
203	0xba44ae80	-0.0007502809
204	0xbcae9631	-0.021311851
205	0xbccfea66	-0.025380325
206	0xbcd5a195	-0.026078025
207	0xbaa6ba10	-0.0012720246
208	0xbbf942f7	-0.00760686
209	0xbd0cdef7	-0.034392323
210	0xbc834bc9	-0.016027348
211	0xbb51bd8a	-0.0032003843
212	0xbd1de935	-0.03855248
213	0xbca1f246	-0.019768845
214	0xbbbab7d1	-0.005698182
215	0x3c14bfa8	0.009078898
216	0xbbe295db	-0.006914837
217	0xbc625d32	-0.013816165
218	0x3c327d7f	0.010894178
219	0xbbb6adaa	-0.0055749016
220	0x3c556a65	0.013025855
221	0x3c782353	0.015145141
222	0x3c9b1fe5	0.018936107
223	0xbb93ff6c	-0.0045165326
224	0x3b84212d	0.004032275
225	0xbbcfa8e2	-0.006337271
226	0x3a412601	0.0007368029
227	0xba3e3ba2	-0.0007256811
228	0x3b3f4243	0.0029183782
229	0x3c3fbb24	0.011702333
230	0x3b090385	0.0020906639
231	0xba065657	-0.000512456
232	0xbbc9a564	-0.0061537493
233	0xbd0e3d0b	-0.034726184
234	0x3ad62c58	0.001634012
235	0xbc21c770	-0.00987421
236	0xbb3a9549	-0.0028470329
237	0xbcc7fe3d	-0.024413222
238	0xbd126e10	-0.035749495
239	0xbc56a0b7	-0.013099841
240	0xbc99c427	-0.01877029
241	0xbc996bf2	-0.01872823
242	0xbb238ddb	-0.0024956379
243	0xbbc22bb6	-0.005925621
244	0xbc80fd1c	-0.015745692
245	0xbb8d975c	-0.004321022
246	0x3ae8ea31	0.001776999
247	0xbb0d53c6	-0.0021564825
248	0x3c06acec	0.008219939
249	0x3c2d6a2d	0.010584396
250	0x3cacadac	0.021078907
251	0x3cd586e0	0.02606529
252	0xbc05a2bd	-0.008156476
253	0x3c5a321f	0.013317614
254	0x3ca87a13	0.020566022
255	0xbba12edb	-0.0049189157

output_fc2.bias f4 [2]
0	0xbb5599e6	-0.0032592951
1	0xbcbef7d7	-0.023311539
