concept_graphs/working/linear-classifier_single-body_2d_3classes_multi-class.pt (torch, 59732 bytes, 6 tensors)

output_fc0.weight f4 [2, 2352]
0	0xbb360f5f	-0.0027780158
1	0x3cb4319c	0.021996312
2	0xbc559fdb	-0.013038601
3	0x3a5e0d2e	0.0008470592
4	0x3ba86afc	0.0051397067
5	0xbc259d8a	-0.010108361
6	0xbbd8b75d	-0.0066136555
7	0x3c7d3a4e	0.015455795
8	0xbc53fcb9	-0.012938672
9	0xbbe36075	-0.006938989
10	0x3c402aa6	0.011728918
11	0x3b32e5dc	0.0027297651
12	0x3a978d2f	0.0011562462
13	0x3a7e6126	0.00097038073
14	0xbbd2c1cc	-0.006431794
15	0xbc850b57	-0.016240759
16	0x3b78b92c	0.0037952168
17	0x3c928589	0.01788594
18	0xbc079089	-0.008274206
19	0x3cade71a	0.021228362
20	0x3ca2f80e	0.019893672
21	0x3ba05584	0.0048930068
22	0x3c7a5372	0.015278684
23	0x3c96baea	0.018399674
24	0x3a2ee579	0.00066717673
25	0x3c7ec50d	0.01554991
26	0xbb853da6	-0.004066187
27	0x3bc5ee23	0.006040351
28	0x3c418abd	0.011812863
29	0x3b940976	0.0045177294
30	0x3bed1a8e	0.0072358316
31	0x3c1cd757	0.009572825
32	0xbc1193de	-0.008885352
33	0xbc0af2de	-0.008480756
34	0x3c4424b0	0.011971638
35	0x3bb16716	0.0054139
36	0xbc70f354	-0.014706451
37	0x3b9e46df	0.004830226
38	0xbc20de62	-0.009818645
39	0x3bb0c7e3	0.005394922
40	0xbbf84b9f	-0.007577374
41	0x3c8b391f	0.01699501
42	0x3c923c5e	0.017851051
43	0x3ca73645	0.02041162
44	0x3c9c6c41	0.019094588
45	0xba4ee64a	-0.0007892592
46	0x3c8c025d	0.01709097
47	0xbb7d2c5e	-0.0038631181
48	0x3cafd75f	0.021465002
49	0xbb9044fc	-0.004402755
50	0xbbcab9ae	-0.0061866855
51	0xb9b35adf	-0.00034209245
52	0x3cb02216	0.021500628
53	0xbc000620	-0.00781396
54	0xbc45e726	-0.012079036
55	0x3b1fde50	0.0024393983
56	0x3c6194c5	0.01376838
57	0x3ca2eb83	0.019887691
58	0x3c6d5e41	0.014487804
59	0xbc24284c	-0.010019373
60	0x3b67ce5d	0.0035370805
61	0x3b07473d	0.0020641827
62	0xbafe0ede	-0.0019383093
63	0x3acdb436	0.0015693966
64	0xbc7aa673	-0.015298474
65	0x3c2a2bea	0.0103864465
66	0xbc219c89	-0.009863981
67	0xbbebcce9	-0.007196058
68	0xbbb98720	-0.00566186
69	0x3c24088f	0.010011806
70	0x3c99eb3c	0.018788926
71	0x39170b31	0.00014404651
72	0xbc43ad39	-0.011943155
73	0x3ca8c078	0.020599589
74	0x3ca461f1	0.020066233
75	0x3caf6f21	0.021415295
76	0x3c12e1d0	0.008964971
77	0x3c17bfd7	0.009262047
78	0xbb95f66c	-0.004576495
79	0xbc6170d6	-0.013759812
80	0xbc8edb5d	-0.017438585
81	0x3c5ce233	0.0134816645
82	0x3cafe6f9	0.021472441
83	0x3c9c63b2	0.019090507
84	0xbc4bab05	-0.012430911
85	0xbc8e7fc6	-0.017394911
86	0xbc8e5164	-0.017372794
87	0xbc76c1f8	-0.015060894
88	0xb9c9236b	-0.00038364096
89	0x3caafbcc	0.02087202
90	0x3bf9e9e5	0.0076267594
91	0xba4c1490	-0.00077850465
92	0xbc67dcca	-0.014151761
93	0xbcfefb81	-0.031125786
94	0xbc013117	-0.007885239
95	0xbc9853a9	-0.01859458
96	0xbb8f99e2	-0.004382358
97	0x3b77fe0f	0.003784064
98	0x3ab4b174	0.0013785795
99	0xbc14ec86	-0.009089595
100	0x3c9c479f	0.01907712
101	0xbc9304c1	-0.017946603
102	0x3a80d1f0	0.0009828191
103	0x3ca0854e	0.019594815
104	0xbc5aa14f	-0.013344123
105	0xbc65bfe4	-0.014022801
106	0x3be6ae54	0.0070398245
107	0x3c3281f3	0.01089524
108	0x3b24f9a5	0.0025173214
109	0x3c97e9fe	0.018544193
110	0xbb40dea4	-0.002942958
111	0x3c239eee	0.009986622
112	0x3c906100	0.017624378
113	0x3b4fd9c8	0.00317155
114	0x3c009679	0.0078483755
115	0x3c1c18d8	0.009527408
116	0xbad2c446	-0.0016080223
117	0x3c3d7831	0.0115643
118	0xbb636e02	-0.003470302
119	0xbc977fff	-0.01849365
120	0xbcc03520	-0.023462832
121	0xbcca79ef	-0.024716346
122	0xbc479ff9	-0.012184137
123	0xbc6dd0a6	-0.014515078
124	0x3bff9292	0.007799455
125	0xbc8d42be	-0.01724374
126	0xbb329e08	-0.0027254838
127	0xbb686bdb	-0.0035464677
128	0xbb867d9c	-0.0041043293
129	0xbc6731c7	-0.014110989
130	0x3c9d0a3f	0.019169925
131	0x3c6baf20	0.014385015
132	0xbbb858b6	-0.0056258095
133	0xbbff4aba	-0.0077908905
134	0x3c8d0307	0.017213358
135	0x3c2f465a	0.010697925
136	0x3cb5dd43	0.022200232
137	0x3c1213c7	0.008915848
138	0x3c987391	0.018609794
139	0x3cafad6f	0.021445004
140	0xbc7f341f	-0.0155763915
141	0xbc9096a7	-0.017649962
142	0x3b3d87d2	0.0028920067
143	0x3bda0f47	0.006654653
144	0xbc81d78d	-0.015849853
145	0x3b5f1fa3	0.0034045957
146	0xbca5d63f	-0.020243762
147	0x3b86aa22	0.004109637
148	0xbcf82e4a	-0.03029551
149	0xbd1351a4	-0.03596653
150	0xbc769e06	-0.015052324
151	0xbbb68d12	-0.005571016
152	0x3a20101d	0.00061059167
153	0xbc799252	-0.015232639
154	0xbbe42f2c	-0.006963631
155	0x3bc96d66	0.0061470745
156	0x3caf0838	0.021366224
157	0xbc2a0548	-0.010377236
158	0xbc783f7f	-0.015151857
159	0x3ca54376	0.02017377
160	0x3c2c345e	0.010510532
161	0x3bea280f	0.0071458886
162	0x3c3ff8fb	0.011717076
163	0x3c2e6706	0.01064468
164	0x3c5b0b3c	0.013369378
165	0x3c9b5c9b	0.018965056
166	0xbc2a10c6	-0.010379976
167	0xbc3a9e7c	-0.011390325
168	0x3bde4b8c	0.0067839082
169	0xbc13b29c	-0.009014752
170	0x3c9f2c14	0.019430198
171	0xbc3cd2eb	-0.011524896
172	0x3b8b4859	0.004250568
173	0x3aceef2e	0.0015787834
174	0x3c5b52f5	0.013386478
175	0xbc0bb253	-0.0085264025
176	0xbd212df9	-0.039350484
177	0xbb9d1960	-0.0047942847
178	0xbb84e370	-0.004055433
179	0xbcb12a80	-0.02162671
180	0xbcd3039e	-0.02575856
181	0x3c9e099e	0.019291695
182	0xbb0922f5	-0.0020925377
183	0x3cf0df6f	0.029403416
184	0x3cdc1e24	0.02686984
185	0x3c427062	0.011867614
186	0xbc0642be	-0.0081946235
187	0xbbce3d84	-0.0062939543
188	0x3cbab8b1	0.022793146
189	0x3a5ebf0b	0.00084970956
190	0x3c25aa50	0.010111406
191	0x3c06ff5e	0.008239595
192	0x3c027c46	0.007964199
193	0x3b940924	0.004517691
194	0x3c79b28c	0.015240323
195	0x3c15b20f	0.009136691
196	0x3c30b482	0.010785224
197	0xbc40388f	-0.011732235
198	0x3c853763	0.016261762
199	0x3ca62766	0.020282459
200	0xbbefd2f0	-0.007318847
201	0x3c160de1	0.009158582
202	0x3c7aa67f	0.015298485
203	0x3c0a84a3	0.008454475
204	0xbc9016ca	-0.017588992
205	0xbcecdf09	-0.028914945
206	0xbc8f7e12	-0.01751617
207	0x3bbfea12	0.005856761
208	0x3b81b391	0.0039581736
209	0xbb2aa2fd	-0.002603709
210	0x3c4e6b15	0.0125987725
211	0x3b49c35d	0.0030786612
212	0x3cbb2b22	0.022847716
213	0x3cfe20a1	0.031021418
214	0x3a92e9a5	0.0011208548
215	0xbc17699b	-0.009241487
216	0x3c303f41	0.010757268
217	0xbc25e7a2	-0.010126026
218	0xba2c8444	-0.00065809884
219	0x3c519f92	0.012794392
220	0x3c84c030	0.016204923
221	0x3bb6140d	0.0055565895
222	0xbb8124cf	-0.0039411555
223	0x3c6c92cb	0.014439295
224	0x3bf2aafa	0.007405636
225	0xbc4a6d54	-0.012355167
226	0x3b99e866	0.0046968935
227	0x3caba82b	0.020954212
228	0x3c23b33e	0.009991465
229	0x3c0ca689	0.008584627
230	0x3cb301e9	0.021851497
231	0x3c4e30d8	0.012584887
232	0xbbdec8c3	-0.006798835
233	0xbc62db08	-0.013846166
234	0xbc630d36	-0.01385813
235	0x3c88cf84	0.016700514
236	0xbc69d11e	-0.014271049
237	0xbc2e30e5	-0.010631775
238	0x3b9bc05e	0.0047531566
239	0xbbf446c2	-0.007454724
240	0xbad38624	-0.0016138
241	0x3c8a69ad	0.016896093
242	0xba2ba767	-0.0006548077
243	0xbc17e598	-0.009271048
244	0x3c80e04d	0.015731955
245	0xbc181ec0	-0.009284675
246	0x3c774f09	0.015094527
247	0xbc814b8b	-0.015783092
248	0x3c94b7ab	0.018153986
249	0xbc831785	-0.016002426
250	0x3a2ee51e	0.00066717144
251	0xbc90614a	-0.017624516
252	0xbc6a0259	-0.014282786
253	0x3b584f3f	0.0033006219
254	0xbb524222	-0.0032082875
255	0x3c836779	0.01604055

output_fc0.bias f4 [2]
0	0x3c9870da	0.0186085
1	0x3b92ab0e	0.0044759577

output_fc1.weight f4 [2, 2352]
0	0x3c9dcee7	0.019263698
1	0x3c313227	0.01081518
2	0x3c2ddb38	0.010611348
3	0xbbb6fce8	-0.005584348
4	0xbaed7b40	-0.0018118396
5	0x3c61db84	0.013785247
6	0xbc97d9bc	-0.018536441
7	0x3ca585b2	0.020205352
8	0x3bd76e63	0.0065744384
9	0xbb8aeccb	-0.0042396537
10	0xbc6f2665	-0.014596556
11	0xbc0db82c	-0.008649867
12	0x3c13f139	0.00902968
13	0xbbfc313c	-0.007696299
14	0x3c98dc36	0.018659692
15	0xbb14fdb8	-0.0022734236
16	0x3bb7eeac	0.0056131687
17	0x3c131738	0.008977704
18	0x3c85b536	0.01632176
19	0xbc74cfc1	-0.0149421105
20	0xbc349ed4	-0.011024196
21	0xbca8aaef	-0.02058932
22	0x3ca3863a	0.019961465
23	0x3c2a5017	0.0103950715
24	0xbbc01095	-0.0058613517
25	0xba98fb09	-0.0011671494
26	0x3beb1538	0.0071741603
27	0xbb9e62b0	-0.004833542
28	0xbc50ef49	-0.0127523625
29	0xbbb727c0	-0.0055894554
30	0xbc1aa592	-0.009438889
31	0x3c099b58	0.008398853
32	0x3c6b983e	0.014379559
33	0xbc4da35a	-0.012551153
34	0xbb8f4f97	-0.0043735015
35	0xbc73997b	-0.014868136
36	0x3c0e174b	0.008672546
37	0xbc96f196	-0.018425744
38	0xbc5f9ee6	-0.013648724
39	0x3ba4eef9	0.0050333706
40	0x3c90f77a	0.017696131
41	0x3bb33285	0.005468669
42	0x3bc490d9	0.0059987125
43	0xbab421a5	-0.0013742937
44	0x3c76e8dc	0.015070166
45	0xbbb23aeb	-0.0054391525
46	0x3c36a9c9	0.011148878
47	0x3b4dcbdd	0.003140203
48	0xbb53a7ca	-0.0032296055
49	0xbc33a332	-0.010964202
50	0xbb1de82e	-0.0024094689
51	0x3c8216c5	0.015879998
52	0x3c374c84	0.011187676
53	0xbba947c7	-0.005166027
54	0xbbd6545c	-0.006540818
55	0x3bd80019	0.0065918085
56	0xbc692e0d	-0.014232171
57	0xbc141164	-0.009037349
58	0xbc34ee6b	-0.011043171
59	0xbc9b056e	-0.018923488
60	0xbc80c91e	-0.0157209
61	0xbc451a66	-0.01203022
62	0x3ca2697c	0.01982569
63	0x3c9cb5e5	0.019129703
64	0xbb006d22	-0.0019596298
65	0x3c999804	0.018749245
66	0xbc989285	-0.018624553
67	0xbc7aaee6	-0.015300488
68	0xbbb61472	-0.0055566365
69	0x3c41a49c	0.011819031
70	0xbc8edae1	-0.017438354
71	0x3c942a6c	0.018086635
72	0xbc69dbed	-0.014273626
73	0xbc535d41	-0.012900651
74	0xbc2f750d	-0.010709059
75	0x3c50c237	0.012741617
76	0x3c3dfcba	0.011595899
77	0x3b341cec	0.002748306
78	0xbbe11716	-0.006869207
79	0xbc017cd5	-0.007903297
80	0x3c298715	0.0103471475
81	0xbb7bdcf5	-0.0038431261
82	0x3c5ff86d	0.013670069
83	0x3c3f2c87	0.011668331
84	0xbc9a7091	-0.018852504
85	0xbca045e8	-0.019564584
86	0x3ae6c14b	0.0017605213
87	0xbc0e5094	-0.0086862035
88	0xbc2be721	-0.010492117
89	0x3c8b07d8	0.016971514
90	0x3bcead12	0.0063072527
91	0xbc441d0c	-0.011969816
92	0x3c97a780	0.018512487
93	0x3b4c925f	0.0031215174
94	0x3b395daf	0.00282846
95	0x3c99f172	0.018791888
96	0xbc64abfc	-0.01395702
97	0xb90bebb1	-0.00013343875
98	0xbc8c6c4b	-0.017141482
99	0x3c400594	0.01172008
100	0x3c948da7	0.018133951
101	0x3beb4155	0.007179419
102	0x3bd56d2b	0.006513258
103	0x3c932511	0.01796201
104	0xbc5a6a23	-0.013330969
105	0xbbbcc677	-0.0057609635
106	0xbc6a0501	-0.01428342
107	0x3c505091	0.012714521
108	0xbb66080e	-0.0035100016
109	0xbc3788e4	-0.011202071
110	0xbc5e5e93	-0.013572353
111	0x3c423238	0.011852793
112	0xbbb07657	-0.005385201
113	0x3a528fb5	0.0008032278
114	0xbc7fa17e	-0.015602468
115	0xbca52fb6	-0.020164352
116	0x3c87512f	0.016518204
117	0xbc15bce7	-0.009139276
118	0x3c8f602f	0.017501919
119	0x3c24f9a0	0.010069281
120	0xbc8c8550	-0.017153412
121	0x3c6c56ab	0.01442496
122	0x3c018c3e	0.0079069715
123	0xbc515ac2	-0.012777986
124	0xbc3556eb	-0.011068086
125	0x3b90cfb3	0.004419291
126	0xbc84f140	-0.016228318
127	0xbc9f15d1	-0.019419583
128	0x3b26e0a7	0.0025463493
129	0x3c838e6f	0.016059129
130	0xbbfcf74a	-0.007719909
131	0xbc84d23a	-0.016213525
132	0x3c59485e	0.013261883
133	0x3b64b6ec	0.003489907
134	0x3b7c5196	0.0038500777
135	0x3bacbc85	0.0052714967
136	0x3b4919d9	0.0030685572
137	0xbca8812c	-0.020569406
138	0x3c726ca0	0.014796406
139	0xbc096768	-0.00838647
140	0x3c06c25f	0.008225053
141	0xbc786075	-0.015159716
142	0x3c97f3b8	0.018548831
143	0xbbb16a11	-0.0054142554
144	0x3ba9d0fd	0.005182384
145	0xbb9ba23b	-0.004749564
146	0x3c83ace4	0.016073652
147	0xbc383a6d	-0.011244399
148	0xbc3197e2	-0.010839434
149	0x3c078839	0.008272224
150	0xbc10e924	-0.008844648
151	0xbbcf15cd	-0.0063197375
152	0xbc120c94	-0.008914132
153	0x3b745310	0.0037280954
154	0xbc5f831b	-0.013642098
155	0xbc1e86c0	-0.009675682
156	0xbc2cf033	-0.010555315
157	0x3bf4f593	0.007475564
158	0x3b65ca27	0.003506312
159	0x3ca57551	0.020197542
160	0xbca76466	-0.020433616
161	0x3ca6e7e1	0.02037424
162	0x3aee8f79	0.0018200717
163	0x3b9c3e1b	0.0047681457
164	0x3b28caa6	0.0025755554
165	0x3bf7f443	0.00756696
166	0x3c0aa69b	0.008462573
167	0xbc1bab72	-0.009501325
168	0xbc96c891	-0.018406184
169	0xbc09b710	-0.008405462
170	0xbb8a5b52	-0.004222312
171	0xbc9ad678	-0.018901095
172	0x3c5f6bec	0.01363657
173	0xbb17a364	-0.002313816
174	0x3c2f3733	0.010694313
175	0xbc5279a1	-0.012846381
176	0xba8b299a	-0.0010617257
177	0xbc3bdb63	-0.01146588
178	0x3b98c716	0.004662405
179	0x3c3d0b76	0.011538377
180	0xba597480	-0.0008295253
181	0x3a609a78	0.00085679395
182	0x3caf1670	0.021373004
183	0x3c8f58b2	0.017498348
184	0xbbdb1461	-0.006685779
185	0x3ca724c7	0.020403279
186	0xbc2fff41	-0.01074201
187	0x3ca4c708	0.020114437
188	0x3a972cd8	0.001153375
189	0x3c8108eb	0.015751323
190	0x3c6f44af	0.014603778
191	0x3c082c51	0.008311347
192	0x3b3105f2	0.00270116
193	0xbbd20acc	-0.0064099785
194	0xbb6e1300	-0.0036327243
195	0xbc79750b	-0.015225659
196	0x3c30a661	0.010781855
197	0xbbd2d2e2	-0.0064338306
198	0xbb042d44	-0.0020168582
199	0xbc8bfca8	-0.01708825
200	0x3c69e845	0.014276569
201	0xbbc3d026	-0.005975741
202	0xbbf62e40	-0.0075128376
203	0x3bb35406	0.005472663
204	0xbc2fbb32	-0.010725783
205	0x3c4cb05f	0.012493222
206	0xba172ae4	-0.0005766584
207	0x3c5ca881	0.013467909
208	0x3ce0fbb1	0.027463766
209	0x3caf437e	0.021394487
210	0x3b61e0cd	0.0034466267
211	0x3b3e0db7	0.0028999874
212	0x3b1725b1	0.0023063237
213	0x3cc0f571	0.023554536
214	0x3c34b2c7	0.011028952
215	0xbb67cd0c	-0.003537002
216	0x3b68e695	0.0035537828
217	0x3c9f6c63	0.019460863
218	0xbc965e08	-0.018355384
219	0x3a49ca9b	0.0007697732
220	0x3c95c458	0.0182821
221	0x3c5f75ff	0.013638972
222	0x3c6639eb	0.014051895
223	0x3bdbe5ac	0.0067107286
224	0x3c932706	0.017962944
225	0x3ab9a144	0.0014162441
226	0x3b9e3499	0.0048280475
227	0xbc9eebdf	-0.019399581
228	0x3ca66bcd	0.020315075
229	0x3c8e5585	0.017374763
230	0x3c26a75e	0.010171739
231	0x3ca184d5	0.01971666
232	0x3ca0cc81	0.019628765
233	0x3c05d7fe	0.008169172
234	0x3cbe18c1	0.023205163
235	0x3c6ee974	0.014582027
236	0x3c4dd6e0	0.012563437
237	0x3d0ab034	0.033859447
238	0x3ceb32f3	0.028710818
239	0x3cb47de3	0.022032684
240	0x3c9eed4e	0.019400265
241	0xbb52f10e	-0.0032187137
242	0x3cba16b5	0.022715906
243	0x39a5f896	0.00031656463
244	0xb9bd414f	-0.00036097548
245	0x3c6dcd92	0.014514344
246	0xbc702197	-0.014656446
247	0x3bf29ac2	0.0074037025
248	0xbb581a93	-0.0032974824
249	0x3891cc87	6.952235e-05
250	0xbb71aad8	-0.0036875512
251	0x3afdf345	0.0019374868
252	0xbc70cfff	-0.014698028
253	0x3c7d71be	0.015469013
254	0x3bf8028c	0.007568663
255	0x3a713500	0.0009201318

output_fc1.bias f4 [2]
0	0x3c2a9c41	0.01041323
1	0x3b943392	0.004522749

output_fc2.weight f4 [2, 2352]
0	0x3c8335ba	0.01601683
1	0x3bcef438	0.0063157342
2	0x3c0cca04	0.008593086
3	0xbc4d6ee4	-0.012538645
4	0xbc27595a	-0.010214174
5	0x3c1f2867	0.0097142225
6	0x3cbc6095	0.022995273
7	0x3c97da19	0.018536614
8	0x3be4d13e	0.0069829514
9	0x3c76f129	0.0150721455
10	0x3cb6786f	0.022274224
11	0x3c465606	0.0121054705
12	0x3cc39c97	0.023878379
13	0x3c99a053	0.018753206
14	0x3c77cb44	0.015124146
15	0x3c3433c7	0.010998673
16	0x3c21dd98	0.009879492
17	0x3bfb4f9d	0.0076694028
18	0x3b8c56c4	0.004282804
19	0xbb0d56f8	-0.002156673
20	0x3c9eb1c6	0.019371878
21	0xbb6ab173	-0.0035811334
22	0xbc26880b	-0.010164271
23	0xba1269f9	-0.0005585249
24	0x3b5911a6	0.0033122092
25	0x3c08ee80	0.008357644
26	0x3ccf42ce	0.02530041
27	0xbc52d762	-0.012868734
28	0x3c91f244	0.017815717
29	0xbbea877b	-0.007157264
30	0xbc2b30cf	-0.010448649
31	0x3c8a4e2e	0.016882982
32	0x3bea5fc3	0.007152529
33	0xbc13dc6d	-0.009024722
34	0xbbbc4a65	-0.005746173
35	0x3c4aaea1	0.012370736
36	0xba60ff9b	-0.000858301
37	0xbbe25483	-0.0069070472
38	0x3c9ded28	0.019278124
39	0x3c60f876	0.013731113
40	0xbbd85b5b	-0.0066026873
41	0x3c95d836	0.018291574
42	0xbc565794	-0.013082404
43	0x3c9d7eac	0.01922544
44	0x3bef898e	0.007310099
45	0x3cb4e983	0.022084003
46	0xbbf5fc12	-0.0075068558
47	0x3c70fe5e	0.014709083
48	0x3c96c640	0.01840508
49	0xbab71e6a	-0.0013970856
50	0x3a2091f7	0.0006125266
51	0x3c929ce2	0.017897073
52	0x3be54743	0.0069970204
53	0x3c9792e4	0.01850266
54	0x3c125618	0.008931659
55	0x3c120253	0.008911687
56	0x3c85bad5	0.01632444
57	0xbc6616f1	-0.014043556
58	0xbb8807bc	-0.0041513126
59	0x3c05ab43	0.008158508
60	0x3be22183	0.0069009676
61	0xbc28284f	-0.010263517
62	0xbb548abb	-0.0032431323
63	0x3cd3ad8a	0.025839586
64	0x3cb98eee	0.022651162
65	0xbc0c9cea	-0.008582333
66	0x3cb394bd	0.02192151
67	0x3cd2d89c	0.025738053
68	0x3c9a16a2	0.01880962
69	0x3cbf4580	0.02334857
70	0x3cb60da6	0.022223305
71	0x3b2ecf4c	0.0026673852
72	0xbbcb979c	-0.0062131416
73	0x3cbf0c6e	0.023321357
74	0x3c4fc06e	0.012680156
75	0xbc5c2904	-0.013437513
76	0x3bca24de	0.0061689457
77	0x3bb693d6	0.0055718226
78	0xbc452b2d	-0.01203422
79	0x3c878856	0.016544502
80	0x3b6cc7fc	0.0036129942
81	0x3c4d8b2c	0.012545388
82	0x3ccfb7ea	0.025356252
83	0xbadf93f7	-0.0017057647
84	0xbbfdd4b3	-0.007746303
85	0x3cad127e	0.021126982
86	0x3c6e9435	0.0145617025
87	0x3c743400	0.014904976
88	0x3c81aaac	0.015828453
89	0x3cbdb712	0.023158584
90	0xbc0be29d	-0.008537916
91	0x3c24cd09	0.01005865
92	0xbb297730	-0.0025858395
93	0xbc72e5c6	-0.01482529
94	0xbc217668	-0.00985489
95	0xbb6b9f76	-0.00359532
96	0xbc1c0afe	-0.009524105
97	0x3c51a5fe	0.012795923
98	0xbc225e3a	-0.009910161
99	0x3bcae491	0.006191798
100	0x3a73ddbb	0.0009302755
101	0xbc5d300a	-0.013500223
102	0x3cd29384	0.025705107
103	0x3be328ad	0.006932339
104	0x3cb8f959	0.022579836
105	0x3caa1b2e	0.020764913
106	0x38c2725b	9.271941e-05
107	0x3c67e394	0.01415338
108	0x3c8adaa3	0.016949957
109	0xbbe1a413	-0.0068860142
110	0x3bfc587c	0.007700978
111	0x3bad5ef9	0.0052908626
112	0xbbd8b551	-0.0066134115
113	0x3b799c62	0.0038087596
114	0x3c6406a8	0.013917603
115	0x3cbc4100	0.022980213
116	0xbbbaf01c	-0.005704893
117	0x3ccd7937	0.025082214
118	0x3c18b7ef	0.009321197
119	0xbc0e2003	-0.008674624
120	0x3c595474	0.013264764
121	0xbc8176fc	-0.015803806
122	0xbc928289	-0.01788451
123	0x3c9a3b2e	0.018827047
124	0xba4ac50f	-0.00077350525
125	0x3cc6068a	0.02417304
126	0xbc1e3cff	-0.009658097
127	0xbbc2da19	-0.0059464094
128	0xbb82194e	-0.0039703017
129	0x3c99e9df	0.018788276
130	0x3cc3e6d3	0.023913777
131	0xbbde7610	-0.0067889765
132	0x3bffa54f	0.0078016887
133	0xbbebf31a	-0.007200611
134	0x3bd44322	0.0064777294
135	0xbc7173f5	-0.014737119
136	0x3c8a1451	0.01685539
137	0x3ca7f9b1	0.020504804
138	0x3bbb4c9d	0.00571592
139	0xbb4f1879	-0.003160028
140	0xb6e9b433	-6.964919e-06
141	0xbc527ccc	-0.012847137
142	0x3c93e169	0.01805182
143	0xbbeaff1f	-0.007171526
144	0x3c2d96e0	0.010595053
145	0x3b460188	0.0030213315
146	0x3c843a4f	0.016141085
147	0x3b97cc6f	0.0046325247
148	0x3c962f61	0.018333139
149	0x3bb2e9b2	0.0054599876
150	0x3bfcce58	0.007715028
151	0xbc8651d1	-0.016396435
152	0xbae5a403	-0.0017520193
153	0xbb5d15e4	-0.0033734972
154	0xbc35ec65	-0.011103724
155	0x3bbd213a	0.005771783
156	0x3b64eb9e	0.0034930478
157	0xbafb64e8	-0.0019179853
158	0x3cc1147a	0.023569334
159	0x3c3c9c3e	0.01151186
160	0xbbec2542	-0.00720659
161	0xbb87ed3d	-0.004148154
162	0xbc000b70	-0.007815227
163	0xbb22aba6	-0.0024821549
164	0x3be447ee	0.0069665825
165	0xbbd0ea77	-0.0063756066
166	0x3c68d99e	0.01421204
167	0x3aa0bb29	0.0012262809
168	0x3b374e5a	0.0027970285
169	0xbc4ec4c7	-0.012620158
170	0x3cb2d73d	0.02183115
171	0xbc53e1d8	-0.012932263
172	0xbae731b4	-0.0017638714
173	0x3b1bfe69	0.0023802763
174	0xbc35c4b6	-0.011094263
175	0x3a31754c	0.0006769493
176	0xbb02a3cf	-0.0019934063
177	0x3aa22bee	0.0012372711
178	0xbcadb207	-0.021203054
179	0xbce902cc	-0.028443716
180	0xbce96947	-0.028492583
181	0xbc74cadc	-0.014940944
182	0x3c047736	0.008085063
183	0xbc011aea	-0.007879952
184	0xbc8684b8	-0.016420707
185	0xbca3b515	-0.019983808
186	0xbc2c3ad2	-0.010512071
187	0xbc26ab73	-0.010172713
188	0xbbbce0b0	-0.0057640895
189	0xb98a5100	-0.0002638176
190	0xbb98799a	-0.004653168
191	0xbc426c49	-0.0118666375
192	0xbc2993b7	-0.010350159
193	0x3cbb6320	0.022874415
194	0x3be28406	0.006912711
195	0x3b0b19ea	0.0021225163
196	0xbc22dd73	-0.009940493
197	0x3cae5bd9	0.02128403
198	0xbc12e942	-0.008966746
199	0xbb1680f1	-0.0022965039
200	0x3ab77a78	0.001399829
201	0x3c481061	0.012210936
202	0xbc21eaba	-0.009882623
203	0xbc73ad71	-0.014872895
204	0x3ba61b0d	0.0050691427
205	0xbc3aa7c5	-0.011392538
206	0xbaab2b20	-0.0013059117
207	0xbce5dc52	-0.028059158
208	0xbd0ac2a8	-0.033877045
209	0xbc88d49c	-0.016702943
210	0xbc800f6b	-0.015632352
211	0xbbb05520	-0.0053812414
212	0xbc63a8fd	-0.01389527
213	0xba6455a8	-0.00087102735
214	0xbb8df88d	-0.004332608
215	0xbc8e3d16	-0.017363112
216	0xbb8d6e21	-0.004316107
217	0xb9d26062	-0.00040126132
218	0x3c4768bd	0.012170968
219	0xbb876e65	-0.004133033
220	0x3c4885c5	0.012238924
221	0x3cc22c89	0.023702877
222	0x3c97cc95	0.01853017
223	0xbb32fadc	-0.0027310168
224	0x3cab9d91	0.020949157
225	0xbaf5fce7	-0.0018767387
226	0x3c2fb531	0.010724352
227	0x3bf81aa9	0.0075715375
228	0x3c60b9fb	0.013716216
229	0xbbf4afd1	-0.007467248
230	0x3c1efe65	0.009704207
231	0x3c1cb048	0.009563513
232	0x3acd4f73	0.0015663937
233	0xbcbc8cf3	-0.023016429
234	0xba71954f	-0.0009215669
235	0xbc11cc46	-0.0088988
236	0xbc0001d0	-0.007812932
237	0xbc31d4b2	-0.010853933
238	0xbce1b13d	-0.027550334
239	0xbd0e508c	-0.034744784
240	0xbc24605f	-0.010032742
241	0xbc494916	-0.012285491
242	0xbce9a128	-0.028519228
243	0xbc2d595a	-0.010580385
244	0xbc976153	-0.018479025
245	0x3b9bc537	0.0047537345
246	0xbb3e6835	-0.0029053811
247	0xbbc8527e	-0.0061133495
248	0x3ca273da	0.019830633
249	0xbc18af8f	-0.0093192
250	0x3c37cd08	0.011218317
251	0x3c92a63b	0.01790153
252	0xba006ff0	-0.00048994925
253	0x3bfb8147	0.007675323
254	0x3b1253ed	0.0022327856
255	0x3c9e268b	0.019305488

output_fc2.bias f4 [2]
0	0x3c91b6bf	0.017787335
1	0xbb5dbcf5	-0.003383455
